…
<p>preprocessor预测里后的特征分别经过stack_num个TCN Stack，得到stack_num个输出 </p>
<p>结构：</p>
<figure class="highlight bash"><table><tr><td class="code"><pre><span class="line">the number of model params: 33201</span><br><span class="line">Receptive Fields: 184</span><br><span class="line">KWSModel(</span><br><span class="line">  (global_cmvn): GlobalCMVN()</span><br><span class="line">  (preprocessing): NoSubsampling()</span><br><span class="line">  (backbone): MDTC(</span><br><span class="line">    (preprocessor): TCNBlock(</span><br><span class="line">      (conv1): DSDilatedConv1d(</span><br><span class="line">        (conv): Conv1d(50, 50, kernel_size=(5,), stride=(1,), <span class="built_in">groups</span>=50)</span><br><span class="line">        (bn): BatchNorm1d(50, eps=1e-05, momentum=0.1, affine=True, track_running_stats=True)</span><br><span class="line">        (pointwise): Conv1d(50, 32, kernel_size=(1,), stride=(1,))</span><br><span class="line">      )</span><br><span class="line">      (bn1): BatchNorm1d(32, eps=1e-05, momentum=0.1, affine=True, track_running_stats=True)</span><br><span class="line">      (relu1): ReLU()</span><br><span class="line">      (conv2): Conv1d(32, 32, kernel_size=(1,), stride=(1,))</span><br><span class="line">      (bn2): BatchNorm1d(32, eps=1e-05, momentum=0.1, affine=True, track_running_stats=True)</span><br><span class="line">      (relu2): ReLU()</span><br><span class="line">    )</span><br><span class="line">    (relu): ReLU()</span><br><span class="line">    (blocks): ModuleList(</span><br><span class="line">      (0): TCNStack(</span><br><span class="line">        (res_blocks): Sequential(</span><br><span class="line">          (0): TCNBlock(</span><br><span class="line">            (conv1): DSDilatedConv1d(</span><br><span class="line">              (conv): Conv1d(32, 32, kernel_size=(5,), stride=(1,), <span class="built_in">groups</span>=32)</span><br><span class="line">              (bn): BatchNorm1d(32, eps=1e-05, momentum=0.1, affine=True, track_running_stats=True)</span><br><span class="line">              (pointwise): Conv1d(32, 32, kernel_size=(1,), stride=(1,))</span><br><span class="line">            )</span><br><span class="line">            (bn1): BatchNorm1d(32, eps=1e-05, momentum=0.1, affine=True, track_running_stats=True)</span><br><span class="line">            (relu1): ReLU()</span><br><span class="line">            (conv2): Conv1d(32, 32, kernel_size=(1,), stride=(1,))</span><br><span class="line">            (bn2): BatchNorm1d(32, eps=1e-05, momentum=0.1, affine=True, track_running_stats=True)</span><br><span class="line">            (relu2): ReLU()</span><br><span class="line">          )</span><br><span class="line">          (1): TCNBlock(</span><br><span class="line">            (conv1): DSDilatedConv1d(</span><br><span class="line">              (conv): Conv1d(32, 32, kernel_size=(5,), stride=(1,), dilation=(2,), <span class="built_in">groups</span>=32)</span><br><span class="line">              (bn): BatchNorm1d(32, eps=1e-05, momentum=0.1, affine=True, track_running_stats=True)</span><br><span class="line">              (pointwise): Conv1d(32, 32, kernel_size=(1,), stride=(1,))</span><br><span class="line">            )</span><br><span class="line">            (bn1): BatchNorm1d(32, eps=1e-05, momentum=0.1, affine=True, track_running_stats=True)</span><br><span class="line">            (relu1): ReLU()</span><br><span class="line">            (conv2): Conv1d(32, 32, kernel_size=(1,), stride=(1,))</span><br><span class="line">            (bn2): BatchNorm1d(32, eps=1e-05, momentum=0.1, affine=True, track_running_stats=True)</span><br><span class="line">            (relu2): ReLU()</span><br><span class="line">          )</span><br><span class="line">          (2): TCNBlock(</span><br><span class="line">            (conv1): DSDilatedConv1d(</span><br><span class="line">              (conv): Conv1d(32, 32, kernel_size=(5,), stride=(1,), dilation=(4,), <span class="built_in">groups</span>=32)</span><br><span class="line">              (bn): BatchNorm1d(32, eps=1e-05, momentum=0.1, affine=True, track_running_stats=True)</span><br><span class="line">              (pointwise): Conv1d(32, 32, kernel_size=(1,), stride=(1,))</span><br><span class="line">            )</span><br><span class="line">            (bn1): BatchNorm1d(32, eps=1e-05, momentum=0.1, affine=True, track_running_stats=True)</span><br><span class="line">            (relu1): ReLU()</span><br><span class="line">            (conv2): Conv1d(32, 32, kernel_size=(1,), stride=(1,))</span><br><span class="line">            (bn2): BatchNorm1d(32, eps=1e-05, momentum=0.1, affine=True, track_running_stats=True)</span><br><span class="line">            (relu2): ReLU()</span><br><span class="line">          )</span><br><span class="line">          (3): TCNBlock(</span><br><span class="line">            (conv1): DSDilatedConv1d(</span><br><span class="line">              (conv): Conv1d(32, 32, kernel_size=(5,), stride=(1,), dilation=(8,), <span class="built_in">groups</span>=32)</span><br><span class="line">              (bn): BatchNorm1d(32, eps=1e-05, momentum=0.1, affine=True, track_running_stats=True)</span><br><span class="line">              (pointwise): Conv1d(32, 32, kernel_size=(1,), stride=(1,))</span><br><span class="line">            )</span><br><span class="line">            (bn1): BatchNorm1d(32, eps=1e-05, momentum=0.1, affine=True, track_running_stats=True)</span><br><span class="line">            (relu1): ReLU()</span><br><span class="line">            (conv2): Conv1d(32, 32, kernel_size=(1,), stride=(1,))</span><br><span class="line">            (bn2): BatchNorm1d(32, eps=1e-05, momentum=0.1, affine=True, track_running_stats=True)</span><br><span class="line">            (relu2): ReLU()</span><br><span class="line">          )</span><br><span class="line">        )</span><br><span class="line">      )</span><br><span class="line">      (1): TCNStack(</span><br><span class="line">        (res_blocks): Sequential(</span><br><span class="line">          (0): TCNBlock(</span><br><span class="line">            (conv1): DSDilatedConv1d(</span><br><span class="line">              (conv): Conv1d(32, 32, kernel_size=(5,), stride=(1,), <span class="built_in">groups</span>=32)</span><br><span class="line">              (bn): BatchNorm1d(32, eps=1e-05, momentum=0.1, affine=True, track_running_stats=True)</span><br><span class="line">              (pointwise): Conv1d(32, 32, kernel_size=(1,), stride=(1,))</span><br><span class="line">            )</span><br><span class="line">            (bn1): BatchNorm1d(32, eps=1e-05, momentum=0.1, affine=True, track_running_stats=True)</span><br><span class="line">            (relu1): ReLU()</span><br><span class="line">            (conv2): Conv1d(32, 32, kernel_size=(1,), stride=(1,))</span><br><span class="line">            (bn2): BatchNorm1d(32, eps=1e-05, momentum=0.1, affine=True, track_running_stats=True)</span><br><span class="line">            (relu2): ReLU()</span><br><span class="line">          )</span><br><span class="line">          (1): TCNBlock(</span><br><span class="line">            (conv1): DSDilatedConv1d(</span><br><span class="line">              (conv): Conv1d(32, 32, kernel_size=(5,), stride=(1,), dilation=(2,), <span class="built_in">groups</span>=32)</span><br><span class="line">              (bn): BatchNorm1d(32, eps=1e-05, momentum=0.1, affine=True, track_running_stats=True)</span><br><span class="line">              (pointwise): Conv1d(32, 32, kernel_size=(1,), stride=(1,))</span><br><span class="line">            )</span><br><span class="line">            (bn1): BatchNorm1d(32, eps=1e-05, momentum=0.1, affine=True, track_running_stats=True)</span><br><span class="line">            (relu1): ReLU()</span><br><span class="line">            (conv2): Conv1d(32, 32, kernel_size=(1,), stride=(1,))</span><br><span class="line">            (bn2): BatchNorm1d(32, eps=1e-05, momentum=0.1, affine=True, track_running_stats=True)</span><br><span class="line">            (relu2): ReLU()</span><br><span class="line">          )</span><br><span class="line">          (2): TCNBlock(</span><br><span class="line">            (conv1): DSDilatedConv1d(</span><br><span class="line">              (conv): Conv1d(32, 32, kernel_size=(5,), stride=(1,), dilation=(4,), <span class="built_in">groups</span>=32)</span><br><span class="line">              (bn): BatchNorm1d(32, eps=1e-05, momentum=0.1, affine=True, track_running_stats=True)</span><br><span class="line">              (pointwise): Conv1d(32, 32, kernel_size=(1,), stride=(1,))</span><br><span class="line">            )</span><br><span class="line">            (bn1): BatchNorm1d(32, eps=1e-05, momentum=0.1, affine=True, track_running_stats=True)</span><br><span class="line">            (relu1): ReLU()</span><br><span class="line">            (conv2): Conv1d(32, 32, kernel_size=(1,), stride=(1,))</span><br><span class="line">            (bn2): BatchNorm1d(32, eps=1e-05, momentum=0.1, affine=True, track_running_stats=True)</span><br><span class="line">            (relu2): ReLU()</span><br><span class="line">          )</span><br><span class="line">          (3): TCNBlock(</span><br><span class="line">            (conv1): DSDilatedConv1d(</span><br><span class="line">              (conv): Conv1d(32, 32, kernel_size=(5,), stride=(1,), dilation=(8,), <span class="built_in">groups</span>=32)</span><br><span class="line">              (bn): BatchNorm1d(32, eps=1e-05, momentum=0.1, affine=True, track_running_stats=True)</span><br><span class="line">              (pointwise): Conv1d(32, 32, kernel_size=(1,), stride=(1,))</span><br><span class="line">            )</span><br><span class="line">            (bn1): BatchNorm1d(32, eps=1e-05, momentum=0.1, affine=True, track_running_stats=True)</span><br><span class="line">            (relu1): ReLU()</span><br><span class="line">            (conv2): Conv1d(32, 32, kernel_size=(1,), stride=(1,))</span><br><span class="line">            (bn2): BatchNorm1d(32, eps=1e-05, momentum=0.1, affine=True, track_running_stats=True)</span><br><span class="line">            (relu2): ReLU()</span><br><span class="line">          )</span><br><span class="line">        )</span><br><span class="line">      )</span><br><span class="line">      (2): TCNStack(</span><br><span class="line">        (res_blocks): Sequential(</span><br><span class="line">          (0): TCNBlock(</span><br><span class="line">            (conv1): DSDilatedConv1d(</span><br><span class="line">              (conv): Conv1d(32, 32, kernel_size=(5,), stride=(1,), <span class="built_in">groups</span>=32)</span><br><span class="line">              (bn): BatchNorm1d(32, eps=1e-05, momentum=0.1, affine=True, track_running_stats=True)</span><br><span class="line">              (pointwise): Conv1d(32, 32, kernel_size=(1,), stride=(1,))</span><br><span class="line">            )</span><br><span class="line">            (bn1): BatchNorm1d(32, eps=1e-05, momentum=0.1, affine=True, track_running_stats=True)</span><br><span class="line">            (relu1): ReLU()</span><br><span class="line">            (conv2): Conv1d(32, 32, kernel_size=(1,), stride=(1,))</span><br><span class="line">            (bn2): BatchNorm1d(32, eps=1e-05, momentum=0.1, affine=True, track_running_stats=True)</span><br><span class="line">            (relu2): ReLU()</span><br><span class="line">          )</span><br><span class="line">          (1): TCNBlock(</span><br><span class="line">            (conv1): DSDilatedConv1d(</span><br><span class="line">              (conv): Conv1d(32, 32, kernel_size=(5,), stride=(1,), dilation=(2,), <span class="built_in">groups</span>=32)</span><br><span class="line">              (bn): BatchNorm1d(32, eps=1e-05, momentum=0.1, affine=True, track_running_stats=True)</span><br><span class="line">              (pointwise): Conv1d(32, 32, kernel_size=(1,), stride=(1,))</span><br><span class="line">            )</span><br><span class="line">            (bn1): BatchNorm1d(32, eps=1e-05, momentum=0.1, affine=True, track_running_stats=True)</span><br><span class="line">            (relu1): ReLU()</span><br><span class="line">            (conv2): Conv1d(32, 32, kernel_size=(1,), stride=(1,))</span><br><span class="line">            (bn2): BatchNorm1d(32, eps=1e-05, momentum=0.1, affine=True, track_running_stats=True)</span><br><span class="line">            (relu2): ReLU()</span><br><span class="line">          )</span><br><span class="line">          (2): TCNBlock(</span><br><span class="line">            (conv1): DSDilatedConv1d(</span><br><span class="line">              (conv): Conv1d(32, 32, kernel_size=(5,), stride=(1,), dilation=(4,), <span class="built_in">groups</span>=32)</span><br><span class="line">              (bn): BatchNorm1d(32, eps=1e-05, momentum=0.1, affine=True, track_running_stats=True)</span><br><span class="line">              (pointwise): Conv1d(32, 32, kernel_size=(1,), stride=(1,))</span><br><span class="line">            )</span><br><span class="line">            (bn1): BatchNorm1d(32, eps=1e-05, momentum=0.1, affine=True, track_running_stats=True)</span><br><span class="line">            (relu1): ReLU()</span><br><span class="line">            (conv2): Conv1d(32, 32, kernel_size=(1,), stride=(1,))</span><br><span class="line">            (bn2): BatchNorm1d(32, eps=1e-05, momentum=0.1, affine=True, track_running_stats=True)</span><br><span class="line">            (relu2): ReLU()</span><br><span class="line">          )</span><br><span class="line">          (3): TCNBlock(</span><br><span class="line">            (conv1): DSDilatedConv1d(</span><br><span class="line">              (conv): Conv1d(32, 32, kernel_size=(5,), stride=(1,), dilation=(8,), <span class="built_in">groups</span>=32)</span><br><span class="line">              (bn): BatchNorm1d(32, eps=1e-05, momentum=0.1, affine=True, track_running_stats=True)</span><br><span class="line">              (pointwise): Conv1d(32, 32, kernel_size=(1,), stride=(1,))</span><br><span class="line">            )</span><br><span class="line">            (bn1): BatchNorm1d(32, eps=1e-05, momentum=0.1, affine=True, track_running_stats=True)</span><br><span class="line">            (relu1): ReLU()</span><br><span class="line">            (conv2): Conv1d(32, 32, kernel_size=(1,), stride=(1,))</span><br><span class="line">            (bn2): BatchNorm1d(32, eps=1e-05, momentum=0.1, affine=True, track_running_stats=True)</span><br><span class="line">            (relu2): ReLU()</span><br><span class="line">          )</span><br><span class="line">        )</span><br><span class="line">      )</span><br><span class="line">    )</span><br><span class="line">  )</span><br><span class="line">  (classifier): LinearClassifier(</span><br><span class="line">    (linear): Linear(in_features=32, out_features=1, bias=True)</span><br><span class="line">    (quant): QuantStub()</span><br><span class="line">    (dequant): DeQuantStub()</span><br><span class="line">  )</span><br><span class="line">  (activation): Sigmoid()</span><br><span class="line">)</span><br><span class="line"></span><br></pre></td></tr></table></figure>



<p>参数图：</p>
<p><img src="/2021/06/29/%E5%91%BD%E4%BB%A4%E8%AF%8D/wekws/image-20220112174511263.png" alt="image-20220112174511263"></p>
…
